models/chat_model.pth (torch, 401403 bytes, 4 tensors)

model.0.weight f4 [128, 768]
00000000: 124a d23c 7ab0 013e 1e5d a9bd f297 f2bd
00000010: 9201 883b 198a 373d 2831 47bb 00b0 4bbd
00000020: 915a fb3b c999 3abd 187c f9bc 21f5 9a3d
00000030: 1279 a63d a5e9 b73d a4b0 c03d c033 e2bd
00000040: 933c 06bd d37b e9ba 3905 76bd 0a24 bdbd
00000050: c9d3 e8bc 3d5d 53bd 96f2 483c dfe9 a13d
00000060: 9352 3d3d 1662 253c 66e6 8fbc c569 35bc
00000070: f32a 163e dade 683d c515 1abd 5dec 453d
00000080: 0e7e 9abb 6931 94bd ca9a 343d a7d2 213d
00000090: ecac c43d 3125 5cbd 6990 1dbd 1502 cbbc
000000a0: c6b2 72bc fa62 71bd 43ea 9a3c ae64 143d
000000b0: a07e dabd cd35 95bd 8e8b a03d f327 70bd
000000c0: e5a9 d4bc 65b9 133c 087f e1bd 7ea8 553d
000000d0: 0dca 0d3e a5f6 86bd 40f3 ca3c bfaf cc3d
000000e0: 42cb 8abc 0293 db3c d284 15bc 9c8f debd
000000f0: a8f3 8e3c 6b39 803d 386e b33d 3e40 e5bd
00000100: a472 e53c dd5a 983d c2ea 593d 3395 ec3c
00000110: 1c9e 693d a535 24bd da73 5b3d db69 5abd
00000120: 52e8 193c 4205 183d e264 82bb 1270 39bd
00000130: 945d 53bd a11f 1d3d 5984 863c a6b8 a23d
00000140: 859c 6cbd 7f71 7dbd 23a5 9ebd 98b5 ad3d
00000150: b02b c93d 4bdc b4bd f90e 6d3d c22e 65bc
00000160: 0341 2ebd 9440 eabc 7ecc 82bc ecac 01be
00000170: 198c 383d 9a96 be3c c06a 533d 2a3d 8ebd
00000180: 2458 e6bd 2c9c b93d 57ca e8bd 340f aebd
00000190: 1737 a23d 74fe d83d 6d5b b33d ff0f 2d3d
000001a0: 85ee 3ebd 2be5 60bd 6633 823d 7f98 ccbd
000001b0: 10f2 f7bc 9941 81bd 9fe6 0cbd d525 af3d
000001c0: ec65 1d3d de37 013e 41c4 dbbd cec5 f0bc
000001d0: db29 04bd 2621 d93d a7bc 33bb 209f ae3d
000001e0: f68f 913d 35d6 5d3d 2ebf e43c a08a 463d
000001f0: 6688 30bd e377 e0bd 00ec a7bc 0d2e 483d
00000200: d96f 453d 4f5a d43c 031b cbbc 2c95 2f3d
00000210: f4a8 bebd a07a 03be ee7d f03d def8 483d
00000220: 7312 8bbd ddc7 873d fb0f f0bb 9716 c83d
00000230: 1460 7fbc 882d 3abd 8b5c a8bd 7d0e 12bd
00000240: 5f9f 133d 03f5 ddbd 5a0a 96ba dc37 54bd
00000250: 09a3 ca3d 3d5f e6bd 9b98 453d 2bf1 5f3d
00000260: 7cb4 3cbd 2c0e dbbd 9bc6 abba bcc3 b7bd
00000270: 1646 ddbc ec82 4abd d585 30bd 9c1f 203e
00000280: f79b 4d3d cd82 993c 4d40 663c 31a1 9b3b
00000290: aef1 7fbd 3a73 ffbc 0508 14be 5daf 8b3d
000002a0: d46d a03d 5648 c33b 2e6e f8bd bb1b d13d
000002b0: a9c8 b7bd 7c5a 67bd 37cd 803d d70a 803d
000002c0: de57 94bd d3e9 dcbc 06e1 8c3d 854c 62bd
000002d0: b2df 24bd 2c11 00be b9c7 97bd 50e8 5dbc
000002e0: 3c56 df3d 53aa 8f3d 7a70 58bd 7294 193e
000002f0: ff06 b4bd fe42 b33b 3750 0ebd c1d4 1b3d
00000300: 6e5c ddbd fc5c 123e 1415 5e3d 31c8 04bb
00000310: 4bcf 723d eabc 40bd 30aa 32bd 3c6f 24bc
00000320: 0ae1 3d3d a392 fd3c 5b52 853d ad92 293d
00000330: 9e23 ab3d 9ef8 3f3d 5485 443c 72ea 3abc
00000340: 1383 893d 2a9e dc3d 9e84 863c f325 44bd
00000350: 43bb 703c 7424 0a3e cfe2 983c 523e 6c3d
00000360: 6853 603d e0f6 a9bc ca68 053d 40e0 8e3d
00000370: 5f71 b63c 11c7 22bd 23ab 843d 0f01 af3d
00000380: 3a6b d53d 40ff 0bbd 5535 fd3d f5e4 60bd
00000390: ab38 8d3b 30df 493c f1bb 773c d279 9d3c
000003a0: 2e3a 783d fc1e 893d 642c 433d ab96 71bd
000003b0: 3bff 883d 2859 7dbd b1ce c2bd 901e 44bd
000003c0: 053d d33d bbd5 e63d 6497 b03c 1411 e73d
000003d0: 6f2c 7f3d 2933 693d 8b0e 9e3d 9939 ebbd
000003e0: c5a3 d43d d7a8 e4bd b69b 88bd 700a b03d
000003f0: 232f ed3b 211e 363d e7cc 873c 3701 89bc
0.025670085 0.12664977 -0.08269714 -0.118453875 0.004150578 0.044809435 -0.003039429 -0.049728394
0.0076707085 -0.045556817 -0.03045468 0.07566286 0.08128561 0.08980111 0.094086915 -0.11045027
-0.03277261 -0.0017813392 -0.060063574 -0.092353895 -0.0284213 -0.05160259 0.012264868 0.079059355
0.046221327 0.010094186 -0.017565917 -0.011072581 0.14664821 0.056853153 -0.037618417 0.048321117
-0.004714734 -0.07235987 0.04409293 0.039507534 0.09603295 -0.053746406 -0.0384678 -0.024781266
-0.014813131 -0.058932282 0.018910533 0.036228828 -0.10668683 -0.07285652 0.07839118 -0.05863185
-0.025959918 0.0090163695 -0.110105574 0.05216264 0.13846608 -0.065900125 0.024774194 0.099944584
-0.016942624 0.026803497 -0.009125905 -0.10867235 0.017450169 0.062609516 0.08761257 -0.11193894
0.028008766 0.07439206 0.053202398 0.028879737 0.05703555 -0.040090222 0.05357728 -0.053323608
0.009393768 0.03711439 -0.0039793113 -0.045272894 -0.051602915 0.03836024 0.01642053 0.07945375
-0.057766456 -0.061875816 -0.07746341 0.08481902 0.09822786 -0.0883108 0.057875607 -0.013988199
-0.04254247 -0.028595246 -0.01596665 -0.1266362 0.045055483 0.023265172 0.051615477 -0.0694526
-0.1124728 0.090629905 -0.11366718 -0.084989935 0.07920664 0.10595408 0.087576725 0.042251583
-0.04661419 -0.05490605 0.0635746 -0.09990024 -0.030266792 -0.0631134 -0.034399625 0.08552138
0.03842728 0.12618968 -0.10730792 -0.029391196 -0.03226648 0.10602026 -0.0027425678 0.085264444
0.071075365 0.054159362 0.027923193 0.048472047 -0.04309883 -0.109603666 -0.020498276 0.048872042
0.04820237 0.025921969 -0.024793154 0.04286687 -0.09309569 -0.12839746 0.11742769 0.049065463
-0.06790628 0.06629918 -0.007326124 0.09769934 -0.015586872 -0.04545358 -0.08220776 -0.03565835
0.03604066 -0.10837748 -0.0011447177 -0.051811084 0.09894378 -0.11248634 0.04824124 0.054673355
-0.04607056 -0.106960624 -0.0013105454 -0.0897288 -0.027010959 -0.049441263 -0.043096382 0.15637058
0.050197568 0.018739128 0.014053416 0.00474944 -0.062486343 -0.031182874 -0.14456184 0.06820557
0.07833448 0.005959551 -0.1213039 0.10210367 -0.0897382 -0.056482777 0.062891416 0.062520675
-0.07243322 -0.026966965 0.06878857 -0.055248756 -0.040252395 -0.1250655 -0.07411141 -0.013544157
0.1090512 0.07014909 -0.05284164 0.14998034 -0.08790397 0.0054706326 -0.034744468 0.038044695
-0.10808645 0.14293283 0.05421932 -0.0020260925 0.05927972 -0.047055162 -0.043619335 -0.010036286
0.046357192 0.03095371 0.06509849 0.041399647 0.08356403 0.04686796 0.0119946785 -0.011408435
0.067144535 0.10772355 0.016420659 -0.047887754 0.014693084 0.13490468 0.018662838 0.05767662
0.054767042 -0.020747602 0.032570638 0.06976366 0.022270856 -0.039740626 0.06477954 0.08545124
0.104208425 -0.034178972 0.12363688 -0.05490585 0.004309734 0.012321278 0.015120492 0.019223128
0.06060236 0.06695363 0.047649756 -0.05898158 0.06689306 -0.061852604 -0.095120795 -0.04788071
0.10314373 0.112712346 0.021556564 0.11282554 0.062298235 0.056933556 0.077176176 -0.11485595
0.10382799 -0.11165016 -0.066703245 0.08595741 0.007238285 0.044462327 0.016577197 -0.016724212

model.0.bias f4 [128]
00000000: 32ea 703d 69f0 843d 587b 8c3d 2904 983d
00000010: 62d5 f03c 3dde 983d 4f1b 9e3d bdc4 b23d
00000020: d7ca 873d 23ea 393d 616b d23d b70f 04bd
00000030: 262d bb3d e4a0 be3d 6ffd bb3d 052f 103d
00000040: 98c6 b93d 2cb1 06bd 6b00 b33d c8c5 f43c
00000050: c780 8a3d 8811 7e3d 75cd b83d d34e 3a3d
00000060: 07ec 913d c006 c6bc a33c 6b3d 61f7 463d
00000070: c64e af3d 5ea3 03bd 206b 603d 868d f93d
00000080: 6f68 7dbc 82c5 c33d fd9c c23d d061 e3bc
00000090: f7e8 973d 94bf 583d 92d6 923d 357a 803d
000000a0: e852 983d c72a 503d 7765 92bc 7227 9a3d
000000b0: 62ef cebc be7e aa3d 9611 703d 1012 0cbd
000000c0: 356c 903d 7df6 9f3d a4c6 a43d dbf4 913d
000000d0: 00b7 dd3d 5a37 0bbd 37c9 ce3d 47a9 913d
000000e0: 74dc 843c de26 d63d 1bb1 2b3d 20b8 dbbc
000000f0: 923a 06bd 4c54 a6bc da1c 8a3d a6bf 583d
00000100: 6b5a 583d 25f1 e6bc 9141 0d3d 55c3 6d3d
00000110: 75c6 8d3d ab2f b83d b6e1 313d 46f3 e7bc
00000120: e462 bfbc f189 efbc 7e2d 8a3d 464d 9f3d
00000130: c214 a53d 44dd a13d b7b3 d93d 88ed f13d
00000140: 942d 4d3d a586 d63d 7c97 513d 3404 9d3d
00000150: 8766 0dbd fef7 913d 82a0 913d c973 9e3d
00000160: 4c0c b13d bfd9 c13d e09c 033d d27c 8a3d
00000170: 4ceb 203d c970 9e3d 316f 873d 2207 763d
00000180: d6ac b63d 782e af3d d8c7 f83c 4180 8e3d
00000190: f7b8 a73d 6834 7a3d 2c38 173d dcfd 4b3d
000001a0: 22be 11bd 2096 ddbc 0596 cc3d 66e1 c33d
000001b0: a6a3 553d 827f bd3d c9ff 053c 8dbf 0cbd
000001c0: 2f9f 873d 0afa 863d 1be9 1e3d 3900 b33d
000001d0: cc8d 233d 96b2 3b3d f375 b13d 97b7 f2bc
000001e0: b3c7 1abd 8916 0bbd 9ee3 923d 142a 32bd
000001f0: 7d6c febc 7042 473d 36f8 103d 485d 303d
0.058817096 0.06491167 0.068594635 0.074226685 0.029398624 0.074642636 0.077200525 0.08728931
0.066304855 0.045389306 0.10274387 -0.03224155 0.09139471 0.09308031 0.09179198 0.03520109
0.09071082 -0.032883808 0.08740314 0.029879466 0.067628436 0.062028438 0.09023563 0.04548533
0.07125097 -0.02417314 0.057430875 0.048575763 0.08559947 -0.03213822 0.054789662 0.121851966
-0.015466793 0.09559156 0.095025994 -0.027756602 0.074174814 0.05291708 0.07169832 0.06273309
0.07437688 0.050822046 -0.017870648 0.07527055 -0.025260631 0.083249554 0.05861052 -0.034196913
0.07051889 0.07810686 0.080457 0.071267806 0.1082592 -0.033988334 0.100969724 0.07112365
0.016218401 0.10456632 0.041916948 -0.026821196 -0.0327707 -0.020303868 0.06743784 0.052917145
0.052820604 -0.028191159 0.034486357 0.05804761 0.06922618 0.08993467 0.043428145 -0.028314244
-0.023362584 -0.02924058 0.06746958 0.077784106 0.080606 0.07903531 0.10629981 0.118128836
0.050092295 0.104749 0.051169857 0.07666817 -0.034521606 0.07127379 0.071106926 0.07736928
0.086449236 0.0946536 0.03213203 0.06762089 0.039286897 0.07736356 0.06613005 0.060065396
0.089196846 0.08553785 0.03036873 0.06958056 0.08189576 0.061085135 0.036918804 0.049802646
-0.035581715 -0.027049124 0.099895515 0.09564476 0.05215802 0.09252836 0.00817866 -0.034362365
0.06622159 0.0659066 0.038796525 0.08740277 0.03993015 0.04582461 0.08665075 -0.029628558
-0.037788104 -0.033957038 0.07172321 -0.04349716 -0.03105759 0.048647344 0.035392962 0.04305771

model.2.weight f4 [10, 128]
00000000: 5a2e 143d cbb8 0c3d 15f5 47be 2261 053d
00000010: 2331 29be a494 173e 0b19 8f3c a80a 85be
00000020: 1838 6d3d 0be5 48be f457 34be 9ea3 8cbd
00000030: 47a9 5ebe 13fa 4ebe e279 e6bd 90d5 bebd
00000040: 8fb3 7c3d b641 2c3d 005f 593d 9bbd 883d
00000050: 80d6 72bc c168 0c3e 39f2 6f3d 5c9e 103d
00000060: 6e72 44be af50 823d 0f07 89be 9e2c c43d
00000070: c4f0 243e 98d6 8ebc a6c1 823d 1016 14be
00000080: b109 fd3c dbb1 19be 2718 073e 120c 5f3d
00000090: fd4f 53be 1dfc 383d 5cb8 63be 4761 6fbe
000000a0: 67aa 033e 4691 f23c a2eb 603d 49e6 ed3d
000000b0: a30b 79bc 2814 0abe 1a4f 0cbe 3c1f 8ebd
000000c0: 60d2 0b3e 1ad9 163e 4be6 5f3d 60ee ef3d
000000d0: 8233 33be 401d 90bd 7cb2 33be b660 16be
000000e0: 9d42 59be 3518 81be 1e89 86be bf87 d83c
000000f0: 0e5c 4cbc 025d 813a 5fcc 2b3e d39d 03be
00000100: c59d 86be 1231 013d 44b6 0fbd 956e 09bc
00000110: 9677 40bd 551a 84be fb83 64be c064 b8ba
00000120: 56af 80bd 957e 9ebd b619 043e da0e 423d
00000130: 4e8e b33b 63d2 65be 7034 bebd ec53 86be
00000140: b151 6fbe d742 aabd f6d2 53be 5bfb 403e
00000150: 59ee 05bd 9d9c 953d 73ec 3abe 1219 64be
00000160: cdfc 0c3e fa51 55be 551f cebd e0e9 6bbe
00000170: 3521 1fbe 54d1 81be 2906 66bc ef45 55be
00000180: abf4 16be 9e33 68be f6d3 39bd d023 b4bd
00000190: 8b34 8fbd faca 643c 84d9 3dbe 508f c73d
000001a0: 8696 46bd bd0d 3f3c ecc1 8bbe fc33 223c
000001b0: 260e 9b3d 6644 0e3e aff7 2fbe 382c c23c
000001c0: f19b 1b3e 915c 11be 0e5d bb39 9a58 ccbd
000001d0: fc7e 87bc 8e11 fc3d 8e1c 5ebe 9861 0bbc
000001e0: 2fd9 5dbc c08e 813a d7e0 5fbe 1998 2d3d
000001f0: b767 a43c 1e49 febc c02b a93d 2155 1f3e
00000200: 65f6 9bbc f2a1 67be 71af 21be 6434 9d3d
00000210: 2309 b53d f19f 3f3d 37e7 f53c 9418 7e3d
00000220: 3c86 843d 7cba cfbd 4747 b0bd 4cae b3bd
00000230: a7a5 23be c390 02be 1636 53be c22a 7abe
00000240: 6e60 35be 5897 313c f69d 063e 4e0c e33d
00000250: d91a 8fbc 8599 81bd b8dd cebd 6ab0 0b3e
00000260: b2c4 60be ad04 753d 925e 4cbd d914 eb3d
00000270: 462a 0a3e 4034 eebb 5e0b 48be 16f7 fcbd
00000280: 6c79 033b 979d 203d 7a60 06be 352f 53bd
00000290: 2df7 76be d031 a73d 148c 47bd 8b98 903a
000002a0: 2cde eabc 9573 9dbc 3e60 193d cc29 a6bd
000002b0: 1b77 8a3d 5522 a53d fcb3 60be de4c f5bc
000002c0: 02fb 953d f92d 3dbe 3212 76be 4837 203d
000002d0: 4da7 37be 800c f43c 45c2 66be a09c 8b3d
000002e0: 2d64 063e a11f 8dbd 7320 ab3d c3f7 9dbd
000002f0: 8b5c 413c 01d4 8c3b 7851 21be 0e04 32bd
00000300: 7d99 cbbd 106c 64bd 9435 233d 451e 6fbe
00000310: 9f0d 6f3d 8608 49be a3b5 273e 0052 2cb9
00000320: 3327 593b 1565 24bd 350b 423d ddc0 4f3d
00000330: 6990 b83d 2020 63bb eb6b 57be 5fae 3cbe
00000340: 86f3 91be 8821 ef3c aa65 2ebe e2b3 95bc
00000350: a4ab 82bd 512e db3d 29d8 843d aacd 3bbe
00000360: aab8 f93d 8425 61be 25c5 d6bd 9c52 c23c
00000370: 22e6 65bd f6bc 09bc 28d8 a43d d29c f7bd
00000380: 60c5 49be 6558 87be caad 4a3d b0db 59be
00000390: 220d 7f3d 26f8 b6bd 2391 88be a4ab 57be
000003a0: 6856 433c 2f2a 0ebd a89b 42be 3c27 0dbe
000003b0: 9372 ed3d 91e9 053e a843 e23d 89ef ad3d
000003c0: c05a 2f3d 5912 47be 8411 1d3e ab08 41be
000003d0: 240f 753d dd1b 3fbd 662f 5abb f56b 52bd
000003e0: 342a acbd 7d6c b1bd 6a57 483d e046 a9bd
000003f0: b5fc bdbd 5064 88be 9140 e8bd d21f c7bd
0.036177017 0.03435592 -0.19527085 0.032563336 -0.1652265 0.14802796 0.017467996 -0.25984693
0.057914823 -0.19618623 -0.17611676 -0.06867145 -0.21744262 -0.20212583 -0.11253716 -0.093180776
0.061694678 0.042054854 0.053069115 0.066767894 -0.014821649 0.13711835 0.05858061 0.035307273
-0.19184276 0.063630454 -0.26763198 0.095788226 0.1610747 -0.01743631 0.06384592 -0.14461541
0.03088841 -0.15009253 0.13192807 0.05445487 -0.20635982 0.04516231 -0.22238296 -0.23376952
0.12857972 0.029610287 0.054912217 0.11616189 -0.015200528 -0.13484251 -0.1370205 -0.06939551
0.1365447 0.14731255 0.054662984 0.11715388 -0.17500117 -0.07036829 -0.17548555 -0.1468533
-0.21216817 -0.2521378 -0.26276487 0.026431916 -0.012473119 0.0009869637 0.1677718 -0.12853174
-0.26292244 0.031540938 -0.03508593 -0.008388181 -0.046989046 -0.2580134 -0.22315972 -0.0014068112
-0.06283443 -0.07738987 0.12900433 0.047377445 0.0054796105 -0.22443537 -0.092873454 -0.26235902
-0.23371007 -0.0831353 -0.20685944 0.18845885 -0.03269801 0.07305262 -0.1825426 -0.22275189
0.13768311 -0.20832053 -0.1006457 -0.23038435 -0.15540011 -0.25355017 -0.014039555 -0.20827459
-0.14741771 -0.2267594 -0.045368157 -0.08795893 -0.06992444 0.013964409 -0.18540007 0.097441316
-0.048483394 0.01166099 -0.27296388 0.009900089 0.07571058 0.1389328 -0.17184328 0.023702726
0.15196206 -0.14195468 0.0003573675 -0.09977837 -0.016540043 0.12308036 -0.2169058 -0.008507155
-0.01354055 0.0009884462 -0.21863113 0.04238138 0.020068986 -0.031040724 0.08260298 0.15559818
-0.019038389 -0.22620371 -0.15789582 0.07676008 0.08839633 0.04678339 0.030017478 0.06203516
0.06470916 -0.10142991 -0.08607345 -0.08773479 -0.1598116 -0.12750535 -0.20626101 -0.24430373
-0.17712566 0.010839306 0.13146195 0.11086331 -0.017468857 -0.0632811 -0.10100883 0.13641515
-0.21950033 0.059818912 -0.049894877 0.11478586 0.13492689 -0.0072694123 -0.19535586 -0.123518154
0.0020061387 0.03921279 -0.1312274 -0.051558692 -0.24117728 0.08163798 -0.048717573 0.001103179
-0.028670393 -0.019220153 0.0374453 -0.08113441 0.06760999 0.08063189 -0.21943659 -0.02994388
0.073232666 -0.18474568 -0.24030378 0.03911522 -0.17934914 0.029791117 -0.22535045 0.06816983
0.13124152 -0.06890798 0.083557986 -0.077132724 0.011801849 0.004297734 -0.15753734 -0.043460898
-0.09941385 -0.05576712 0.039846018 -0.2335139 0.0583626 -0.19632158 0.16377883 -0.00016433746
0.0033134937 -0.04013546 0.04737397 0.050721038 0.09011919 -0.00346566 -0.21037261 -0.18425892
-0.28506106 0.029190794 -0.1703097 -0.018274251 -0.06380394 0.107021935 0.06486542 -0.18340173
0.12193425 -0.21986967 -0.10486821 0.023721032 -0.056127675 -0.008406868 0.08049041 -0.12090458
-0.19704199 -0.26434627 0.049482144 -0.2127521 0.062268384 -0.08934049 -0.2667323 -0.2106157
0.011922456 -0.0347082 -0.1900469 -0.13784498 0.11594119 0.1307738 0.11048061 0.08492953
0.042811155 -0.19440593 0.15338713 -0.18850963 0.059828892 -0.046657432 -0.0033292412 -0.051372487
-0.08406487 -0.086632706 0.04891149 -0.082654715 -0.09276716 -0.26639032 -0.1134044 -0.09722866

model.2.bias f4 [10]
00000000: adbb 7d3c 8f79 8dbd 6e44 80bc df18 bd3d
00000010: 4dff 94bc 561f 473d bf6c e0bc 7e0e bc3d
00000020: 82e9 133d 6029 a2bd
0.01548664 -0.06907951 -0.01565763 0.092332594 -0.018188143 0.04861387 -0.027395604 0.09182452
0.036111362 -0.07918048
